cnn_model_quantized.tflite (tflite, 347256 bytes, 28 tensors)

arith.constant f4 [32]
0.0464777 0.021820594 -0.008774599 0.028527608 -0.0039759343 0.026483648 0.102483 0.023428297
0.013056318 0.025625974 0.016166637 0.036377452 -0.0195832 -0.00887871 0.03594752 -0.011196736
-0.011101108 0.028042343 -0.009181125 0.015175891 -0.006407467 0.032733455 0.011862875 -0.042848565
0.02207305 0.007504493 -0.017977422 0.024877222 0.04627303 0.02915224 0.012117306 0.039027035
00000000: 675f 3e3d 1ac1 b23c 56c3 0fbc bbb2 e93c
00000010: 8e48 82bb 3cf4 d83c 9be2 d13d b3ec bf3c
00000020: 2bea 553c 90ed d13c e56f 843c 8600 153d
00000030: f26c a0bc 0278 11bc b53d 133d 8472 37bc
00000040: 6ce1 35bc 0eb9 e53c 6e6c 16bc 4da4 783c
00000050: bbf5 d1bb 8413 063d 815c 423c fa81 2fbd
00000060: 8ad2 b43c 40e8 f53b 6345 93bc 51cb cb3c
00000070: ca88 3d3d aed0 ee3c aa87 463c d0da 1f3d

arith.constant1 f4 [32, 3, 3, 3]
0.0889538 -0.023328522 -0.066438876 0.120361656 -0.04709631 0.07642306 -0.09073663 0.0353683
-0.09520787 -0.02515864 0.021145782 -0.061943203 -0.057730857 0.047844153 -0.050951246 -0.02676365
0.08914017 -0.07335046 -0.15262817 -0.017488498 -0.1773923 -0.13175793 -0.16782673 -0.14106473
-0.033441786 -0.07895452 0.053085066 -0.043364067 -0.07648426 -0.0052863993 0.12219358 0.06972038
0.008187896 0.06542456 0.06475579 0.06464181 0.061071962 -0.08146345 -0.028040126 -0.019926062
0.025603287 0.04299389 0.081145845 0.013030408 0.012515611 0.07493133 0.049516324 0.06678688
-0.019158166 0.05046527 -0.044733915 -0.06337876 -0.070531294 0.07281265 -0.019770755 0.024839869
0.00528544 0.06489282 0.056251954 -0.07863365 -0.07118333 -0.009727183 0.050127063 -0.007083483
-0.0075187306 -0.013267916 -0.0016816551 -0.0022410692 -0.0039066826 -0.0056571383 -0.00359028 -0.005295726
-0.0021907422 -0.0014678263 -0.0022442061 -0.00094246323 -0.0010553285 -0.0012290167 -0.0011948961 -0.0040707206
-0.002095587 0.07989041 -0.0711929 0.05356131 -0.10619235 -0.03313582 0.036988925 -0.079822555
-0.08757518 0.08447772 -0.023260493 0.038910966 -0.10668327 0.08163226 0.078405835 -0.055910226
0.10123202 0.10792462 0.011518279 -0.15783569 -0.09777101 -0.17096949 -0.13805023 -0.031623296
0.025641944 0.033937495 -0.06873153 -0.13848461 0.090370856 -0.10142868 -0.09056829 0.005245855
0.11330387 -0.11895246 0.07648112 -0.13162777 0.077533044 -0.039785117 0.057407063 0.006186087
0.012004859 0.044078402 0.008371318 -0.14011133 0.009509251 -0.08868583 0.07917735 0.059963487
0.05237612 -0.06151487 -0.10461086 0.048111826 0.024052214 -0.061185542 0.059957266 -0.0450105
-0.1192887 -0.01455282 0.11156311 0.09894956 0.0516316 0.06033876 0.0068382327 0.14086908
0.0016110701 -0.075065345 -0.030853165 -0.045322295 -0.04740279 0.007053039 0.099136025 -0.050292242
-0.08989045 -0.004634226 -0.12006873 -0.12539688 0.082862325 0.11725175 -0.042164534 0.018798249
0.12554657 0.023332037 0.09014977 -0.0956376 -0.015886704 -0.06661719 0.04750628 0.048565883
0.10893914 0.1341332 0.11403753 0.01850638 -0.0777884 -0.0140276775 0.10286246 0.066128284
0.04538165 -0.0207452 0.102100156 0.022799714 -0.028943198 0.0499355 -0.083176985 -0.08586961
-0.119946934 0.061119113 -0.01831517 0.051545758 0.091552615 0.13919936 0.11240384 -0.07008228
-0.041247133 -0.06632815 0.10252214 -0.10085888 0.087025665 0.105636135 -0.009873257 0.08280421
0.049956936 -0.08691767 0.026750145 0.031889245 0.11545346 -0.02389251 -0.06720319 0.050950956
-0.06686339 0.082079425 -0.03287885 0.076865844 -0.089231856 -0.0702687 -0.078325324 -0.017366715
-0.00078085106 -0.027805561 0.11133209 0.027087055 -0.088068694 -0.014534215 -0.03878307 0.065697856
-0.05079762 0.065770164 -0.064405106 -0.0008740633 0.021690685 -0.030336978 -0.019766102 0.09731926
0.10997109 -0.08627333 0.016358498 -0.100327365 -0.007806679 -0.109915555 0.055118605 -0.09981707
-0.101066664 -0.0798597 -0.056673396 0.018399747 -0.12527557 0.13203628 0.03564454 0.027021518
-0.05354923 -0.017147174 0.02084295 0.071821384 -0.014017586 -0.1391796 -0.08113723 0.03524797
00000000: 692d b63d 751b bfbc 1b11 88bd 2c80 f63d
00000010: 0fe8 40bd b183 9c3d 20d4 b9bd 5ade 103d
00000020: 58fc c2bd 7e19 cebc eb39 ad3c 28b8 7dbd
00000030: 3177 6cbd 3bf8 433d 41b2 50bd 713f dbbc
00000040: 1f8f b63d c438 96bd 8f4a 1cbe 0a44 8fbc
00000050: 54a6 35be 8deb 06be c5da 2bbe 4673 10be
00000060: 41fa 08bd e8b2 a1bd ba6f 593d 859e 31bd
00000070: c8a3 9cbd 8839 adbb a140 fa3d 8fc9 8e3d
00000080: 8626 063c 50fd 853d af9e 843d ed62 843d
00000090: 9826 7a3d 4fd6 a6bd 68b4 e5bc fb3b a3bc
000000a0: fcbd d13c 5c1a 303d cb2f a63d 7e7d 553c
000000b0: 470e 4d3c 9975 993d a1d1 4a3d 8fc7 883d
000000c0: 96f1 9cbc acb4 4e3d e93a 37bd b9cc 81bd
000000d0: b672 90bd cc1e 953d 47f6 a1bc fb7c cb3c
000000e0: 7c31 ad3b 87e6 843d 7368 663d ae0a a1bd
000000f0: 91c8 91bd c35e 1fbc 0952 4d3d 901c e8bb
00000100: af5f f6bb ac61 59bc fb6a dcba e7de 12bb
00000110: a103 80bb 845f b9bb e74a 6bbb c587 adbb
00000120: 8e92 0fbb 1464 c0ba 8813 13bb a30f 77ba
00000130: f352 8aba f516 a1ba 0f9e 9cba ae63 85bb
00000140: 1e56 09bb 959d a33d 95cd 91bd 1b63 5b3d
00000150: 607b d9bd 6db9 07bd b381 173d 027a a3bd
00000160: 9e5a b3bd a802 ad3d ca8c bebc 1b61 1f3d
00000170: c27c dabd d02e a73d 3d93 a03d 1f02 65bd
00000180: bc52 cf3d 9507 dd3d 2ab7 3c3c ae9f 21be
00000190: 2b3c c8bd a012 2fbe 0a5d 0dbe 6e87 01bd
000001a0: 0e0f d23c 0b02 0b3d 1ec3 8cbd e9ce 0dbe
000001b0: 5b14 b93d d7b9 cfbd de7b b9bd 6ce5 ab3b
000001c0: dc0b e83d 599d f3bd 22a2 9c3d 6ec9 06be
000001d0: a5c9 9e3d b8f5 22bd ab23 6b3d a9b4 ca3b
000001e0: 07b0 443c 8e8b 343d da27 093c 5879 0fbe
000001f0: b1cc 1b3c eba0 b5bd bc27 a23d 469c 753d
00000200: 5888 563d 04f7 7bbd 383e d6bd e810 453d
00000210: 2609 c53c b19d 7abd c095 753d ee5c 38bd
00000220: a24d f4bd f36e 6ebc 337b e43d 11a6 ca3d
00000230: a87b 533d c725 773d 4113 e03b fc3f 103e
00000240: 8b2a d33a dcbb 99bd c7bf fcbc dfa3 39bd
00000250: 6e29 42bd 2e1d e73b d407 cb3d 3dff 4dbd
00000260: 7c18 b8bd b5da 97bb 98e6 f5bd 0a68 00be
00000270: b9b3 a93d af21 f03d b8b4 2cbd c9fe 993c
00000280: 488f 003e d422 bf3c 71a0 b83d a5dd c3bd
00000290: d524 82bc 986e 88bd f295 423d 05ed 463d
000002a0: 7c1b df3d 375a 093e 828c e93d b19a 973c
000002b0: 864f 9fbd 58d4 65bc 8ea9 d23d 446e 873d
000002c0: 1ce2 393d d6f1 a9bc e319 d13d 77c6 ba3c
000002d0: 491a edbc 2b89 4c3d b258 aabd 68dc afbd
000002e0: bda6 f5bd 0958 7a3d b209 96bc a521 533d
000002f0: f07f bb3d 478a 0e3e fc33 e63d 4c87 8fbd
00000300: c1f2 28bd 0ed7 87bd 21f7 d13d 1a8f cebd
00000310: 833a b23d c257 d83d 71c3 21bc 4195 a93d
00000320: a59f 4c3d e401 b2bd 1f23 db3c 4c9e 023d
00000330: dd72 ec3d 3aba c3bc d3a1 89bd f3b1 503d
00000340: acef 88bd 4219 a83d f9ab 06bd d76b 9d3d
00000350: 31bf b6bd 09e9 8fbd 0769 a0bd a444 8ebc
00000360: 07b2 4cba 7dc8 e3bc 1402 e43d ace5 dd3c
00000370: 5c5d b4bd eb20 6ebc ffda 1ebd 998c 863d
00000380: 2a11 50bd 82b2 863d d3e6 83bd 6521 65ba
00000390: aab0 b13c 4185 f8bc 85ec a1bc 524f c73d
000003a0: 8638 e13d 12b0 b0bd 4202 863c 6f78 cdbd
000003b0: 2bcf ffbb 681b e1bd 0cc4 613d e46c ccbd
000003c0: 0afc cebd 7b8d a3bd 5d22 68bd 11bb 963c
000003d0: 3d48 00be 8534 073e 0200 123d 3b5c dd3c
000003e0: 7056 5bbd 3b78 8cbc d6be aa3c 1717 933d
000003f0: 04aa 65bc 1985 0ebe 472b a6bd 2d60 103d

arith.constant2 f4 [128]
-0.5965512 -0.64987385 -0.7816459 -0.3849239 -0.61666346 -0.4802429 -0.64419746 -0.44611946
-0.47413313 -0.6225266 -0.6109287 -0.6816229 -0.6805304 -0.66064656 -0.40144113 -0.6751882
-0.7313501 -0.641498 -0.5877862 -0.66258335 -0.45758367 -0.6106254 -0.6725783 -0.59420353
-0.39806697 -0.70398504 -0.60973316 -0.542485 -0.5553299 -0.48456237 -0.45661765 -0.6122922
-0.6420919 -0.436701 -0.62089014 -0.46035445 -0.6415641 -0.45262262 -0.38749537 -0.5680068
-0.6436736 -0.5452356 -0.4547576 -0.5294312 -0.5217409 -0.5807334 -0.6884113 -0.71378285
-0.6788356 -0.6325861 -0.4140325 -0.5805499 -0.4276992 -0.65565604 -0.5249671 -0.65021855
-0.39304745 -0.73033285 -0.39805493 -0.5910947 -0.59213233 -0.58456475 -0.50177896 -0.71190286
-0.5130467 -0.6269908 -0.6501512 -0.5047546 -0.3591376 -0.68760496 -0.6468014 -0.6254257
-0.6130289 -0.59261286 -0.53151757 -0.7737533 -0.64049244 -0.5977321 -0.5538375 -0.561219
-0.6639393 -0.43661907 -0.70268637 -0.41617775 -0.64532584 -0.6945744 -0.7489933 -0.67494845
-0.6348366 -0.6382714 -0.39210793 -0.5188221 -0.68694854 -0.6024053 -0.62280226 -0.51074505
-0.37652224 -0.5150036 -0.60620517 -0.5990844 -0.6165275 -0.68262607 -0.45859572 -0.624053
-0.75528747 -0.6961983 -0.5753582 -0.48408455 -0.6171533 -0.663603 -0.6518808 -0.51818943
-0.6969322 -0.6261365 -0.5675819 -0.7180353 -0.62647486 -0.46106365 -0.61192006 -0.5069916
-0.57714874 -0.622841 -0.47755483 -0.54484665 -0.6789612 -0.6226412 -0.6548687 -0.7043424
00000000: 94b7 18bf 225e 26bf f219 48bf bf14 c5be
00000010: a8dd 1dbf 66e2 f5be 20ea 24bf c569 e4be
00000020: 94c1 f2be e75d 1fbf d365 1cbf d77e 2ebf
00000030: 3e37 2ebf 2220 29bf b189 cdbe 22d9 2cbf
00000040: c339 3bbf 3739 24bf 2879 16bf 109f 29bf
00000050: 6848 eabe f251 1cbf 172e 2cbf b91d 18bf
00000060: 6fcf cbbe 5d38 34bf 7917 1cbf 4ce0 0abf
00000070: 1a2a 0ebf 8f18 f8be cac9 e9be 2ebf 1cbf
00000080: 2260 24bf 4697 dfbe a8f2 1ebf 94b3 ebbe
00000090: 8b3d 24bf 27be e7be cb65 c6be e568 11bf
000000a0: cbc7 24bf 8f94 0bbf fdd5 e8be ce88 07bf
000000b0: d090 05bf f2aa 14bf b93b 30bf 79ba 36bf
000000c0: 2bc8 2dbf 2af1 21bf 11fc d3be eb9e 14bf
000000d0: 64fb dabe 13d9 27bf 3e64 06bf b974 26bf
000000e0: 843d c9be 18f7 3abf dbcd cbbe fb51 17bf
000000f0: fc95 17bf 09a6 15bf 9674 00bf 443f 36bf
00000100: 0757 03bf 7882 20bf 4f70 26bf 9937 01bf
00000110: e2e0 b7be e106 30bf c794 25bf e61b 20bf
00000120: 76ef 1cbf 7ab5 17bf 8911 08bf b214 46bf
00000130: 50f7 23bf f904 19bf 4bc8 0dbf 0cac 0fbf
00000140: edf7 29bf 898c dfbe 41e3 33bf 4015 d5be
00000150: 1334 25bf a1cf 31bf 06be 3fbf 6cc9 2cbf
00000160: a784 22bf c165 23bf 5fc2 c8be 86d1 04bf
00000170: dcdb 2fbf 3c37 1abf f86f 1fbf 30c0 02bf
00000180: 86c7 c0be 47d7 03bf 4330 1bbf 985d 19bf
00000190: bfd4 1dbf 95c0 2ebf 0fcd eabe f0c1 1fbf
000001a0: 855a 41bf 0d3a 32bf ad4a 13bf eed9 f7be
000001b0: c2fd 1dbf e3e1 29bf a9e1 26bf 10a8 04bf
000001c0: 266a 32bf 7b4a 20bf 0c4d 11bf 29d1 37bf
000001d0: a860 20bf 8910 ecbe cba6 1cbf 34ca 01bf
000001e0: 05c0 13bf 8272 1fbf 1182 f4be 127b 0bbf
000001f0: 67d0 2dbf 6a65 1fbf 7aa5 27bf c94f 34bf

arith.constant3 f4 [128]
0.64568865 0.714286 0.5821402 0.65531945 0.607195 0.6210206 0.6437802 0.53747076
0.6553488 0.538607 0.7618897 0.5006669 0.7051263 0.5800026 0.4840028 0.57972646
0.6792236 0.58283436 0.6537983 0.6260017 0.54837984 0.51257557 0.4414721 0.7510029
0.46560162 0.8560399 0.73296255 0.6493128 0.7071366 0.78615713 0.6441051 0.5385121
0.66671246 0.5891674 0.5925767 0.7155382 0.585627 0.5079076 0.6025354 0.60456663
0.553485 0.6523223 0.68003947 0.6546016 0.74637234 0.7253866 0.56093204 0.5925931
0.60623175 0.5518002 0.69354206 0.6992264 0.5567364 0.52304524 0.6415225 0.58351994
0.51739943 0.6093867 0.64576674 0.61078686 0.72985417 0.7055639 0.62116873 0.7302911
0.58712167 0.54469055 0.8096168 0.4694622 0.5682576 0.59918934 0.6051744 0.5506156
0.5681895 0.68261224 0.65031016 0.6725135 0.59832615 0.7269079 0.57892466 0.6294941
0.6427902 0.5012755 0.51432556 0.61997974 0.5890624 0.6408369 0.68235785 0.67443633
0.58167857 0.56420255 0.64145046 0.6094242 0.5111076 0.5872954 0.54389536 0.53926843
0.6415101 0.6126159 0.6027069 0.6547292 0.54824376 0.545875 0.5647525 0.5488152
0.76690954 0.6189173 0.6067819 0.7966522 0.58919626 0.5474365 0.6348415 0.7284671
0.61318713 0.6712402 0.5499245 0.8584474 0.54543746 0.5287284 0.57031226 0.7564684
0.64400804 0.5022969 0.51145464 0.6497041 0.7418306 0.565838 0.5856153 0.63152665
00000000: da4b 253f 73db 363f 2407 153f 04c3 273f
00000010: 2271 1b3f 35fb 1e3f c7ce 243f af97 093f
00000020: f0c4 273f 26e2 093f 340b 433f b52b 003f
00000030: 2883 343f 0d7b 143f 37cf f73e f468 143f
00000040: 99e1 2d3f a234 153f 535f 273f a641 203f
00000050: 9f62 0c3f 2738 033f a208 e23e ba41 403f
00000060: 5663 ee3e 6e25 5b3f 6fa3 3b3f 5d39 263f
00000070: e706 353f 9841 493f 12e4 243f eedb 093f
00000080: abad 2a3f add3 163f 1bb3 173f 832d 373f
00000090: a7eb 153f 3c06 023f c33f 1a3f e1c4 1a3f
000000a0: 31b1 0d3f 98fe 263f 1117 2e3f f893 273f
000000b0: 4212 3f3f f0b2 393f 3e99 0f3f 2eb4 173f
000000c0: 0132 1b3f c742 0d3f f98b 313f 8000 333f
000000d0: 4786 0e3f 4be6 053f d23a 243f 9061 153f
000000e0: 4a74 043f c400 1c3f f850 253f 875c 1c3f
000000f0: b9d7 3a3f d69f 343f ea04 1f3f 5cf4 3a3f
00000100: 9b4d 163f d770 0b3f 0c43 4f3f 595d f03e
00000110: 5479 113f 7964 193f b6ec 1a3f 25f5 0c3f
00000120: de74 113f adbf 2e3f ba7a 263f d829 2c3f
00000130: e72b 193f a316 3a3f 6834 143f 8626 213f
00000140: e68d 243f 9753 003f d7aa 033f feb6 1e3f
00000150: cbcc 163f e30d 243f 01af 2e3f dca7 2c3f
00000160: e3e8 143f 946f 103f 1936 243f 3903 1c3f
00000170: f3d7 023f fe58 163f ba3c 0b3f 7f0d 0a3f
00000180: 023a 243f 65d4 1c3f 004b 1a3f 559c 273f
00000190: b459 0c3f 77be 0b3f 9f93 103f 277f 0c3f
000001a0: 2f54 443f 5d71 1e3f 0f56 1b3f 66f1 4b3f
000001b0: 91d5 163f cc24 0c3f f984 223f d27c 3a3f
000001c0: d5f9 1c3f 66d6 2b3f dac7 0c3f 35c3 5b3f
000001d0: caa1 0b3f bf5a 073f fcff 113f eaa7 413f
000001e0: b6dd 243f 8896 003f b1ee 023f 0253 263f
000001f0: 9ce8 3d3f c2da 103f e2ea 153f bbab 213f

arith.constant4 f4 [128]
-0.69788516 -0.6297814 -0.6042436 -0.7355791 -0.3443936 -0.3371166 -0.7196094 -0.775786
-0.7333834 -0.4843497 -0.5247149 -0.6453036 -0.509572 -0.43606755 -0.8272048 -0.5201369
-0.56196547 -0.5187851 -0.5178011 -0.38476282 -0.44599602 -0.44989812 -0.62165225 -0.6737754
-0.54385865 -0.6330775 -0.38946086 -0.5200695 -0.5254848 -0.5603422 -0.5997423 -0.36978057
-0.48274213 -0.8433841 -0.6034563 -0.47576666 -0.57357854 -0.42416012 -0.5896698 -0.8825156
-0.8846843 -0.5423779 -0.9547635 -0.83004403 -0.5462126 -0.37410077 -0.63564914 -0.34195876
-0.52077883 -0.5417268 -0.36770496 -0.4281154 -0.4940494 -0.6229266 -0.5548094 -0.5080629
-0.5353676 -0.8055129 -0.47478193 -0.44275635 -0.7439703 -0.62231433 -0.7624082 -0.54427683
-0.6417527 -0.4198614 -0.43434432 -0.7790166 -0.7001579 -0.6873988 -0.5160755 -0.6631944
-0.5440321 -0.6979129 -0.579529 -0.8022987 -0.4950072 -0.42854238 -0.716755 -0.32775888
-0.5550919 -0.7719086 -0.4488676 -0.7036015 -0.54517907 -0.8314252 -0.29138637 -0.6579215
-0.42138022 -0.6873708 -0.5514012 -0.27472115 -0.65337175 -0.41425878 -0.6590353 -0.63788325
-0.6650026 -0.6607498 -0.57210946 -0.5317299 -0.46158186 -0.62859344 -0.39372763 -0.46591613
-0.5120657 -0.50928944 -0.6771567 -0.4711629 -0.36753887 -0.7104285 -0.8179093 -0.6028754
-0.5124511 -0.7203064 -0.56691223 -0.58659786 -0.66469437 -0.8141342 -0.58551574 -0.55410486
-0.85339636 -0.5841453 -0.645053 -0.54201466 -0.63249344 -0.3621013 -0.40922365 -0.5383401
00000000: 9aa8 32bf 5b39 21bf b5af 1abf e94e 3cbf
00000010: 5c54 b0be 8c9a acbe 5238 38bf e999 46bf
00000020: 04bf 3bbf affc f7be b753 06bf 9e32 25bf
00000030: 5073 02bf 3f44 dfbe b2c3 53bf b127 05bf
00000040: f8dc 0fbf 1acf 04bf 9d8e 04bf a2ff c4be
00000050: 9759 e4be 0c59 e6be 9a24 1fbf 8b7c 2cbf
00000060: 523a 0bbf 5e11 22bf 6a67 c7be 4623 05bf
00000070: 2c86 06bf 9672 0fbf b688 19bf e153 bdbe
00000080: fa29 f7be 05e8 57bf 1d7c 1abf b097 f3be
00000090: 0bd6 12bf 842b d9be 9af4 16bf 8bec 61bf
000000a0: ac7a 62bf 47d9 0abf 616b 74bf c47d 54bf
000000b0: 97d4 0bbf 238a bfbe e7b9 22bf 3815 afbe
000000c0: c351 05bf 9cae 0abf d343 bcbe f131 dbbe
000000d0: 0bf4 fcbe 1e78 1fbf fd07 0ebf 6910 02bf
000000e0: da0d 09bf 1836 4ebf 9e16 f3be f6b0 e2be
000000f0: d674 3ebf fe4f 1fbf 2f2d 43bf ba55 0bbf
00000100: e849 24bf 13f8 d6be 6162 debe a26d 47bf
00000110: 8c3d 33bf 5ef9 2fbf 861d 04bf 1cc7 29bf
00000120: b045 0bbf 6baa 32bf 035c 14bf 7363 4dbf
00000130: 9571 fdbe e869 dbbe 417d 37bf 03d0 a7be
00000140: 811a 0ebf cd9b 45bf f9d1 e5be 3a1f 34bf
00000150: db90 0bbf 48d8 54bf 9830 95be 8b6d 28bf
00000160: 26bf d7be 88f7 2fbf a128 0dbf 40a8 8cbe
00000170: 5f43 27bf ba19 d4be 8ab6 28bf 514c 23bf
00000180: 9c3d 2abf e626 29bf c475 12bf 731f 08bf
00000190: 7554 ecbe 80eb 20bf ab96 c9be 8f8c eebe
000001a0: bd16 03bf cb60 02bf 245a 2dbf 433c f1be
000001b0: 0e2e bcbe a4de 35bf 8162 51bf 0b56 1abf
000001c0: ff2f 03bf 0066 38bf 2921 11bf 472b 16bf
000001d0: 6929 2abf 196b 50bf 5ce4 15bf d1d9 0dbf
000001e0: 2f78 5abf 8c8a 15bf 3222 25bf 79c1 0abf
000001f0: 17eb 21bf 5765 b9be c385 d1be a8d0 09bf

arith.constant5 f4 [128]
0.62739366 1.2446511 1.0379548 0.9058262 2.1345139 1.2223741 1.1786908 0.6492633
1.1195537 1.5457885 1.4316243 0.8878576 0.9367298 1.9119537 0.6386701 0.95057976
0.9912278 1.8664894 0.92218876 1.8663384 1.7640389 1.6817137 1.5992332 0.6696138
1.4064038 1.2912937 2.2523432 1.0118053 1.254333 0.9186619 1.3332711 1.6885797
1.7422999 0.63398755 1.0166804 1.3365048 1.0709633 1.8063968 1.0090711 0.6235286
0.53745073 0.9390933 0.62626046 0.58610404 1.5189741 1.9696823 1.3614389 2.0705914
1.3047619 1.6842908 1.707875 1.1996886 1.2442553 1.0209928 1.006819 1.6609544
1.0227634 0.53567535 1.3403823 1.7394035 1.4170427 1.2896957 0.6698203 0.8531989
1.1742866 0.9643976 1.7543834 0.65411454 0.72842175 0.7739582 0.9065816 1.0559062
0.9081007 0.9355264 0.99700004 1.1936955 1.6923494 1.9296136 0.64165974 1.9778455
0.93040794 0.95646447 1.5211389 0.5181425 0.9854507 0.9377089 1.757497 1.47607
1.4626846 0.85404265 0.8466713 2.3674529 0.8077007 1.8409482 0.76143146 0.9509875
0.63548034 0.5219922 1.3259872 1.4276044 1.541495 0.9882849 1.0190252 1.6546077
1.0376325 1.4773073 0.59001005 1.2161846 2.2447224 0.6847384 0.8143965 1.427591
1.5315937 0.54648936 1.1329758 1.2446355 0.63097686 0.538215 0.99018675 1.6594276
0.70268106 1.1245278 1.3614933 1.3958999 1.027461 1.4263347 2.003771 1.3571728
00000000: df9c 203f ba50 9f3f b4db 843f 3ae4 673f
00000010: e09b 0840 c176 9c3f 57df 963f 1f36 263f
00000020: 894d 8f3f 66dc c53f 773f b73f a34a 633f
00000030: 86cd 6f3f e6ba f43f e27f 233f 3259 733f
00000040: 1bc1 7d3f 20e9 ee3f 9014 6c3f 2de4 ee3f
00000050: 07cc e13f 6542 d73f acb3 cc3f cf6b 2b3f
00000060: 0a05 b43f 1d49 a53f 6426 1040 d682 813f
00000070: fc8d a03f 6d2d 6b3f a1a8 aa3f 6123 d83f
00000080: af03 df3f 024d 223f 9522 823f 9712 ab3f
00000090: 5315 893f 0338 e73f 3e29 813f 929f 1f3f
000000a0: 5f96 093f 6b68 703f 9b52 203f ea0a 163f
000000b0: be6d c23f 8d1e fc3f a143 ae3f 9284 0440
000000c0: 7002 a73f d796 d73f a69b da3f 658f 993f
000000d0: c243 9f3f e4af 823f 72df 803f 279a d43f
000000e0: e9e9 823f 0522 093f a691 ab3f c6a4 de3f
000000f0: a861 b53f c014 a53f 5879 2b3f 3e6b 5a3f
00000100: 064f 963f c3e2 763f a38f e03f 0d74 273f
00000110: d979 3a3f 2022 463f bb15 683f ef27 873f
00000120: 4a79 683f a87e 6f3f 653b 7f3f 04cb 983f
00000130: e89e d83f 94fd f63f d043 243f 0b2a fd3f
00000140: 372f 6e3f dbda 743f aeb4 c23f fda4 043f
00000150: 7f46 7c3f b10d 703f a9f5 e03f ddef bc3f
00000160: 4039 bb3f 8aa2 5a3f 73bf 583f 5984 1740
00000170: 79c5 4e3f 31a4 eb3f 2ced 423f eb73 733f
00000180: d7ae 223f 48a1 053f f3b9 a93f bebb b63f
00000190: b54f c53f 3d00 7d3f 6b6f 823f 2fca d33f
000001a0: 24d1 843f 6818 bd3f e60a 173f f0ab 9b3f
000001b0: 88a9 0f40 044b 2f3f 4a7c 503f 4dbb b63f
000001c0: 430b c43f bae6 0b3f 5a05 913f 3750 9f3f
000001d0: b387 213f 75c8 093f e17c 7d3f 2068 d43f
000001e0: e8e2 333f 87f0 8f3f 6a45 ae3f d9ac b23f
000001f0: d883 833f 2392 b63f c93d 0040 d7b7 ad3f

arith.constant6 f4 [64]
-0.48128712 -0.5809228 -0.6501782 -0.6297749 -0.46846417 -0.5607339 -0.61178625 -0.5982624
-0.5798894 -0.6273585 -0.699281 -0.58658576 -0.5783536 -0.55047184 -0.5936151 -0.5343591
-0.62103575 -0.60499835 -0.6513475 -0.82471484 -0.475448 -0.72258687 -0.73535573 -0.54043156
-0.65629184 -0.49962223 -0.6717058 -0.79160666 -0.5675642 -0.6260164 -0.5986844 -0.7852701
-0.6170885 -0.57693887 -0.6271697 -0.6434813 -0.6776577 -0.6824992 -0.49364334 -0.50379294
-0.55027163 -0.63210225 -0.49113175 -0.5321559 -0.49072444 -0.5560676 -0.5830685 -0.49108785
-0.6614034 -0.5086409 -0.59638894 -0.573025 -0.70716745 -0.6105136 -0.59759855 -0.59422797
-0.6872083 -0.56847954 -0.5303909 -0.52461326 -0.6119895 -0.79767346 -0.4901991 -0.6149609
00000000: 446b f6be 5bb7 14bf 1472 26bf ee38 21bf
00000010: 89da efbe 428c 0fbf 069e 1cbf ba27 19bf
00000020: a273 14bf 919a 20bf 1404 33bf 7c2a 16bf
00000030: fb0e 14bf b9eb 0cbf 29f7 17bf c2cb 08bf
00000040: 33fc 1ebf 2ce1 1abf b6be 26bf 8320 53bf
00000050: ec6d f3be 74fb 38bf 4640 3cbf b959 0abf
00000060: be02 28bf 7cce ffbe e9f4 2bbf bca6 4abf
00000070: e34b 11bf 9c42 20bf 6143 19bf 7607 49bf
00000080: 83f9 1dbf 44b2 13bf 328e 20bf 31bb 24bf
00000090: fa7a 2dbf 44b8 2ebf d2be fcbe 93f8 00bf
000000a0: 9ade 0cbf 74d1 21bf 9f75 fbbe 5e3b 08bf
000000b0: 3c40 fbbe 725a 0ebf fa43 15bf de6f fbbe
000000c0: bc51 29bf 4a36 02bf f2ac 18bf c4b1 12bf
000000d0: ed08 35bf 9f4a 1cbf 38fc 18bf 531f 18bf
000000e0: e2ec 2fbf e087 11bf b3c7 07bf 0e4d 06bf
000000f0: 58ab 1cbf 5434 4cbf 60fb fabe 146e 1dbf

arith.constant7 f4 [64]
0.7909897 0.9348952 0.8747308 0.940286 0.9115362 1.0994936 1.0542958 0.89223367
1.0903232 0.8911609 1.0888234 0.72132283 0.9859197 0.7907455 1.0704743 0.61945516
1.1650441 0.7815963 1.2006592 1.1643337 0.8952787 0.9319867 0.957064 0.7489519
0.9134318 0.5352245 0.8900047 0.80590826 0.82544565 0.78999233 0.92815363 0.94436604
0.81594 1.0326245 0.8294515 0.7809401 1.2102283 1.0502032 0.6991173 1.0615464
0.80586267 1.0407597 0.720904 0.66802824 0.68753123 1.0785712 0.91149 0.7690722
1.0918366 0.7818721 0.807905 0.97391814 0.7956759 0.90011805 0.749601 1.041722
0.7628478 0.9542174 0.5583459 0.80827224 0.9030881 1.031502 0.78330564 0.8581894
00000000: 4d7e 4a3f 4b55 6f3f 5cee 5f3f 95b6 703f
00000010: 705a 693f 35bc 8c3f 2af3 863f 6d69 643f
00000020: b68f 8b3f 1f23 643f 915e 8b3f 9da8 383f
00000030: 3c65 7c3f 4c6e 4a3f 4d05 893f 9d94 1e3f
00000040: 2a20 953f b216 483f 33af 993f e308 953f
00000050: fc30 653f ae96 6e3f 2502 753f 50bb 3f3f
00000060: abd6 693f 7904 093f 59d7 633f 0150 4e3f
00000070: 6850 533f f03c 4a3f 7a9b 6d3f f9c1 713f
00000080: 72e1 503f 0a2d 843f ef56 543f b1eb 473f
00000090: c3e8 9a3f 0f6d 863f 5af9 323f c1e0 873f
000000a0: 044d 4e3f 9d37 853f 2a8d 383f e603 2b3f
000000b0: 0c02 303f 9f0e 8a3f 6957 693f eae1 443f
000000c0: 4dc1 8b3f c528 483f ddd2 4e3f b352 793f
000000d0: 6ab1 4b3f 236e 663f dae5 3f3f 2657 853f
000000e0: fe49 433f 9747 743f c2ef 0e3f eeea 4e3f
000000f0: c830 673f 4208 843f b886 483f 4db2 5b3f

arith.constant8 f4 [64]
-0.5630779 -0.72610486 -0.4386132 -0.6683538 -0.52077806 -0.5524352 -0.4657932 -0.48080534
-0.4647616 -0.7480633 -0.60495615 -0.55656433 -0.7852138 -0.48700657 -0.93510264 -0.83703953
-0.6076306 -0.66047126 -0.6353353 -0.8177792 -0.5884933 -0.7098446 -0.58263886 -0.53314763
-0.5098582 -0.77081764 -0.87721115 -0.75405884 -0.50038415 -0.5420586 -0.6050197 -0.51497364
-0.47709328 -0.53974396 -0.716058 -0.42234582 -0.6597908 -0.6095734 -0.59767425 -0.501897
-0.52207077 -0.5583452 -0.5054669 -0.61179614 -0.4490113 -0.98193395 -0.71939933 -0.9647988
-0.58754617 -0.5693939 -0.71251905 -0.52457875 -0.80302453 -0.47236413 -0.72170764 -0.67594147
-0.43129876 -0.665383 -0.6821675 -0.7913889 -0.5822903 -0.5452563 -0.54998213 -0.8635379
00000000: e025 10bf 02e2 39bf e991 e0be 3c19 2bbf
00000010: b651 05bf 656c 0dbf 727c eebe 1e2c f6be
00000020: 3cf5 edbe 1481 3fbf 68de 1abf 007b 0ebf
00000030: c603 49bf ed58 f9be e362 6fbf 3948 56bf
00000040: ae8d 1bbf a514 29bf 56a5 22bf fa59 51bf
00000050: 7fa7 16bf 60b8 35bf d227 15bf 5d7c 08bf
00000060: 1186 02bf 4e54 45bf e990 60bf 000a 41bf
00000070: 2d19 00bf 5ac4 0abf 92e2 1abf 50d5 03bf
00000080: 9245 f4be a92c 0abf 944f 37bf b63d d8be
00000090: 0de8 28bf 010d 1cbf 2e01 19bf 527c 00bf
000000a0: 6ea6 05bf b6ef 0ebf 4766 01bf ac9e 1cbf
000000b0: cfe4 e5be 0660 7bbf 8e2a 38bf 0efd 76bf
000000c0: 6d69 16bf ccc3 11bf a667 36bf cb4a 06bf
000000d0: 0493 4dbf b6d9 f1be d5c1 38bf 800a 2dbf
000000e0: 31d3 dcbe 8a56 2abf 87a2 2ebf 7798 4abf
000000f0: fa10 15bf eb95 0bbf a1cb 0cbf d210 5dbf

arith.constant9 f4 [64]
0.8032061 0.8216807 1.3994528 1.2938102 0.7073377 1.4607601 0.98154217 0.80832905
0.735831 0.5887319 0.78423744 0.9954336 1.2800839 0.8416372 1.0611756 0.84025824
0.70612997 1.3247751 1.9336268 0.788169 0.8747532 1.4034959 0.69975156 0.8150035
0.9426206 1.5921838 1.0785189 0.5836152 0.6866088 0.8024044 0.53704846 0.61844844
1.7723068 0.9671645 0.7787552 1.0094228 1.5969784 0.5405385 0.52923965 1.2235197
0.8959644 1.3014752 0.6706682 0.6749173 0.82763076 1.2803304 1.0016328 1.5499817
0.69636637 0.9305591 0.5944467 0.7353483 1.5300651 0.73208517 0.8779402 0.7370824
1.141983 1.5066175 0.79825276 1.0410951 1.2119613 0.68108165 1.4159844 1.8177303
00000000: ea9e 4d3f ab59 523f 4521 b33f 939b a53f
00000010: 1514 353f 30fa ba3f 5946 7b3f a7ee 4e3f
00000020: 6c5f 3c3f 22b7 163f c9c3 483f bdd4 7e3f
00000030: cad9 a33f 8975 573f 9ad4 873f 2a1b 573f
00000040: efc4 343f 3b92 a93f 1581 f73f 72c5 493f
00000050: d3ef 5f3f c1a5 b33f eb22 333f 12a4 503f
00000060: 954f 713f aecc cb3f e80c 8a3f ce67 153f
00000070: 98c5 2f3f 606a 4d3f 027c 093f a352 1e3f
00000080: f3da e23f 1898 773f 805c 473f c434 813f
00000090: ca69 cc3f bb60 0a3f 407c 073f 4b9c 9c3f
000000a0: ec5d 653f bd96 a63f e9b0 2b3f 61c7 2c3f
000000b0: 9cdf 533f dee1 a33f 8135 803f cd65 c63f
000000c0: 1145 323f 1f39 6e3f a92d 183f c93f 3c3f
000000d0: 2cd9 c33f ef69 3b3f b0c0 603f 6fb1 3c3f
000000e0: 802c 923f d8d8 c03f 4b5a 4c3f 9b42 853f
000000f0: 8c21 9b3f 5e5b 2e3f fa3e b53f 63ab e83f

arith.constant10 f4 [32]
0.03506661 -2.3927987 -0.00016526441 0.007110838 -0.0684262 -1.3394634 -2.9204702 -2.193275
6.729737e-06 -1.6899853 -0.058304094 -0.5614097 -0.014459021 0.0025582977 -2.3375223 -0.058994368
0.027006622 -1.9088598 0.0030637002 -2.0707843 2.7238023e-06 -1.841633 -0.043190017 -0.017603919
-0.23319252 0.009761451 -0.028922468 -2.4194922 -1.9577068 -1.573744 -2.2077622 -2.5373123
00000000: 01a2 0f3d 9d23 19c0 d44a 2db9 0802 e93b
00000010: 0923 8cbd 8973 abbf fce8 3ac0 9e5e 0cc0
00000020: 00d0 e136 7051 d8bf 46d0 6ebd 8cb8 0fbf
00000030: 88e5 6cbc 1da9 273b f799 15c0 14a4 71bd
00000040: fe3c dd3c 8555 f4bf 5cc8 483b bb87 04c0
00000050: 91ca 3636 a1ba ebbf 04e8 30bd 1836 90bc
00000060: 05ca 6ebe 7eee 1f3c d0ee ecbc f6d8 1ac0
00000070: 2396 fabf 7270 c9bf fa4b 0dc0 5363 22c0

arith.constant11 f4 [32]
32.953022 8.0082035 31.29494 31.996647 31.02988 17.981497 8.960289 14.663795
31.384579 16.603273 30.718887 19.853985 30.10476 31.219513 10.879258 30.162785
31.629406 17.65178 31.46226 14.035321 31.66112 24.338375 28.088078 30.128742
21.294476 29.923496 31.11048 10.48582 18.918156 22.98382 7.685491 7.4141808
00000000: e5cf 0342 9a21 0041 0a5c fa41 22f9 ff41
00000010: 323d f841 1bda 8f41 585d 0f41 e89e 6a41
00000020: 9e13 fb41 81d3 8441 48c0 f541 f6d4 9e41
00000030: 8cd6 f041 90c1 f941 7111 2e41 624d f141
00000040: 0609 fd41 d836 8d41 b5b2 fb41 ad90 6041
00000050: f949 fd41 feb4 c241 62b4 e041 aa07 f141
00000060: 165b aa41 5263 ef41 43e2 f841 ebc5 2741
00000070: 6258 9741 ddde b741 8bef f540 f840 ed40

arith.constant12 f4 [32]
-0.5199759 -0.4949689 -0.5527952 -0.44510108 -0.8782831 -0.7869973 -0.40836346 -0.53579587
-0.82938373 -0.86188954 -0.5266707 -0.77744716 -0.4970399 -0.80567825 -0.57997286 -0.72285175
-0.86395746 -0.81835985 -0.8005386 -0.3822745 -0.5692776 -0.41560647 -0.5003766 -0.5238534
-0.5203898 -0.52598166 -0.6820546 -0.51817936 -0.48539287 -0.827349 -0.5640869 -0.42975786
00000000: 241d 05bf 906c fdbe fc83 0dbf 4ae4 e3be
00000010: 29d7 60bf a878 49bf 0415 d1be eb29 09bf
00000020: 7e52 54bf cba4 5cbf e4d3 06bf c706 47bf
00000030: 047c febe ee40 4ebf 1a79 14bf d00c 39bf
00000040: 512c 5dbf 0880 51bf 19f0 4cbf 7cb9 c3be
00000050: 2dbc 11bf 5fca d4be ae18 00bf 421b 06bf
00000060: 4438 05bf bca6 06bf 219b 2ebf 67a7 04bf
00000070: 6a85 f8be 25cd 53bf 0068 10bf 3909 dcbe

arith.constant13 f4 [32]
1.4742705 1.2399865 1.2538053 1.3431859 1.1461804 2.7963414 1.5396249 2.1590724
1.5357435 1.415015 1.5111897 1.8068836 1.3520428 2.0054617 1.7349887 1.5846072
1.6157185 2.159238 1.7307041 1.5162059 1.5472803 1.5240996 1.6064868 1.7164109
1.5940318 1.2385069 2.2483804 2.2837012 1.4596667 2.3510118 1.5059849 1.1571677
00000000: e5b4 bc3f e1b7 9e3f b17c a03f 84ed ab3f
00000010: 0ab6 923f 42f7 3240 6e12 c53f 3e2e 0a40
00000020: 3e93 c43f 361f b53f aa6e c13f f647 e73f
00000030: bd0f ad3f 7c59 0040 1c14 de3f 69d4 ca3f
00000040: ddcf ce3f f530 0a40 b687 dd3f 0913 c23f
00000050: 480d c63f b215 c33f 5ca1 cd3f 5ab3 db3f
00000060: 3c09 cc3f 6587 9e3f 77e5 0f40 2928 1240
00000070: 5cd6 ba3f fa76 1640 1dc4 c03f 121e 943f

arith.constant15 f4 [256]
-0.03924625 -0.011094795 0.019284751 0.018580908 0.0012255443 -0.049285624 -0.0063384604 -0.006090793
0.045006845 -0.001071213 -0.026505925 -0.01646311 -0.011769713 0.05653606 0.0046621505 -0.00058347185
0.044435423 -0.025889175 0.01742503 -0.009298753 0.020946374 -0.0055260845 -0.020287303 -0.009669429
-0.0054828073 0.009154532 -0.026092798 0.0013236215 -0.033881918 0.008954758 -0.001596608 -0.02256557
-0.007964937 0.014585631 -0.022322914 0.0040299147 -0.0043375944 0.0045256075 0.011956109 -0.0058774482
-0.0140030105 -0.010853584 0.030108273 0.006970798 0.053638816 0.01089971 -0.041841473 -0.015439781
-0.01775619 -0.024284134 -0.0057223667 -0.026020994 -0.03546405 -0.008447077 -0.01186807 -0.019224385
-0.03435157 0.029686272 -0.022891942 0.027728343 -0.023990197 -0.036203902 0.037362967 0.0022439635
0.021496352 0.0064939344 -0.011436062 -0.026880955 0.03528875 -0.024160402 -0.04893382 -0.009544581
0.016848393 0.048609488 -0.00911103 -0.038345642 -0.027948728 -0.010539935 0.021382717 0.0055494695
-0.025463453 -0.01960632 0.016523978 0.08075164 0.001960314 -0.026072467 0.030427216 -0.00039029174
-0.008711451 0.027099464 0.012053636 -0.014469426 -0.0028274118 -0.020042041 -0.019994454 0.019959612
0.02647999 -0.02645422 0.02744662 0.005220168 -0.022858242 -0.02127757 -0.009929471 0.018562093
-0.035554655 -0.037569903 0.023458244 -0.0028679003 -0.06961595 0.019345451 -0.0038890766 0.006283153
0.017760543 -0.014150039 -0.0114693465 -0.032106873 -0.05319111 0.05148828 0.012461195 -0.048035227
-0.016897174 0.009085651 -0.01463864 0.015271813 0.0033609583 -0.0011237607 -0.028407294 -0.0023002175
0.015278539 -0.010493476 -0.03300545 0.038387366 -0.043548044 -0.04107061 -0.0033902575 0.0289454
0.07240798 -0.032399166 0.058422647 0.023788081 0.08830329 -0.009104488 0.030988507 -0.028600993
-0.020119369 -0.0137170255 0.022874253 -0.035411656 -0.0038470323 0.015015397 -0.022621116 0.028544845
0.028427457 -0.033920716 0.087912135 -0.01203462 0.025634978 -0.017691392 -0.020547329 -0.02914141
0.0450239 0.01737515 0.0013062665 -0.03382753 0.025934927 -0.023023788 -0.0046778503 0.00046618484
-0.022659091 0.008735819 -0.026451577 0.078924045 0.05132281 -0.046888985 -0.028504474 -0.03823724
-0.012732603 -0.092051215 -0.021093506 0.0117379 -0.027153766 0.039138023 0.05942581 -0.023636602
0.01892677 -0.016201934 0.03324638 -0.019472424 -0.02953753 0.0038642206 -0.027443178 -0.06969583
-0.00031839343 -0.0025194867 0.0049614036 -0.03986051 -0.03126707 -0.030274518 -0.016157974 0.0005116413
-0.0007616424 0.052487984 -0.021420794 -0.0040426906 -0.06556478 -0.024435509 -0.03173341 0.03753473
-0.04269936 0.0066796625 -0.023022652 -0.008622345 -0.027732566 -0.015096247 0.0008686387 0.021207761
-0.022632565 0.018874986 -0.011896282 -0.020966023 0.008031192 -0.020465255 -0.03761999 0.029383875
-0.0069263633 -0.014745623 0.042231828 0.01295733 0.025984466 0.03476167 -0.03957954 -0.0039919005
-0.019137815 0.07297062 -0.032411616 -0.033684757 -0.015376309 0.012878587 0.031112775 0.0066174017
0.046972442 0.0026505552 -0.039437998 -0.088935524 0.006262055 0.018842407 0.00580412 -0.00026188145
-0.03190108 -0.0007284605 -0.02480919 0.022613611 -0.018285776 -0.00987789 -0.00797352 0.051645067
00000000: adc0 20bd f1c6 35bc 0efb 9d3c fd36 983c
00000010: 71a2 a03a b9df 49bd dcb2 cfbb 4695 c7bb
00000020: 1959 383d f267 8cba f422 d9bc a5dd 86bc
00000030: c1d5 40bc 5b92 673d f4c4 983b 22f4 18ba
00000040: eb01 363d 8915 d4bc f0be 8e3c cc59 18bc
00000050: bb97 ab3c 2814 b5bb 8f31 a6bc 866c 1ebc
00000060: 1fa9 b3bb e4fc 153c 90c0 d5bc 5e7d ad3a
00000070: c4c7 0abd fab6 123c 4645 d1ba 6edb b8bc
00000080: 5e7f 02bc 92f8 6e3c 8bde b6bc 600d 843b
00000090: 6122 8ebb 8c4b 943b 8ee3 433c 9c97 c0bb
000000a0: e26c 65bc 3bd3 31bc a0a5 f63c 4b6b e43b
000000b0: 60b4 5b3d b294 323c f761 2bbd 23f7 7cbc
000000c0: 6e75 91bc 85ef c6bc b182 bbbb fb29 d5bc
000000d0: c042 11bd 9c65 0abc 4b72 42bc 757c 9dbc
000000e0: 3bb4 0cbd a030 f33c e287 bbbc 8d26 e33c
000000f0: 1787 c4bc 8b4a 14bd e909 193d 760f 133b
00000100: 1e19 b03c 12cb d43b 525e 3bbc 7335 dcbc
00000110: f08a 103d 09ec c5bc d46e 48bd e060 1cbc
00000120: a405 8a3c be1a 473d 6e46 15bc 5210 1dbd
00000130: bbf4 e4bc b1af 2cbc cf2a af3c 53d8 b53b
00000140: bb98 d0bc 6f9d a0bc 4b5d 873c 1e61 a53d
00000150: 9d78 003b ed95 d5bc 7f42 f93c 12a0 ccb9
00000160: 79ba 0ebc b2ff dd3c 9d7c 453c 2c11 6dbc
00000170: 194c 39bb 352f a4bc 69cb a3bc 5782 a33c
00000180: 90ec d83c 85b6 d8bc bcd7 e03c f10d ab3b
00000190: 3541 bbbc 4c4e aebc 38af 22bc 880f 983c
000001a0: c2a1 11bd e6e2 19bd 812b c03c 62f3 3bbb
000001b0: cf92 8ebd 5a7a 9e3c e1df 7ebb e8e2 cd3b
000001c0: 8f7e 913c 91d5 67bc ede9 3bbc 7f82 03bd
000001d0: ecde 59bd 60e5 523d 0a2a 4c3c 96c0 44bd
000001e0: f16b 8abc fbdb 143c e8d6 6fbc a036 7a3c
000001f0: 8643 5c3b 274b 93ba 6ab6 e8bc 3fbf 16bb
00000200: d652 7a3c d4ec 2bbc b930 07bd 123c 1d3d
00000210: 6f5f 32bd a839 28bd 152f 5ebb e71e ed3c
00000220: a34a 943d fdb4 04bd 964c 6f3d 39df c23c
00000230: 5bd8 b43d fe2a 15bc 9cdb fd3c a14c eabc
00000240: 60d1 a4bc 60bd 60bc c962 bb3c d00b 11bd
00000250: 7e1e 7cbb 2403 763c eb4f b9bc e1d6 e93c
00000260: b3e0 e83c 73f0 0abd 470b b43d db2c 45bc
00000270: 7200 d23c 8aed 90bc df52 a8bc f7b9 eebc
00000280: fb6a 383d 5556 8e3c 0837 ab3a bc8e 0abd
00000290: 7c75 d43c 629c bcbc a748 99bb 456a f439
000002a0: 8f9f b9bc ae20 0f3c fab0 d8bc eea2 a13d
000002b0: de37 523d aa0e 40bd 3782 e9bc a79e 1cbd
000002c0: 689c 50bc 5985 bcbd 4acc acbc 5250 403c
000002d0: 9371 debc 314f 203d 7a68 733d 8ca1 c1bc
000002e0: 500c 9b3c ebb9 84bc 5b2d 083d a284 9fbc
000002f0: b1f8 f1bc dd3e 7d3b 84d0 e0bc b0bc 8ebd
00000300: 0bee a6b9 f91d 25bb 4593 a23b c644 23bd
00000310: e611 00bd 4402 f8bc ba5d 84bc ab1f 063a
00000320: f5a8 47ba a4fd 563d a97a afbc 8c78 84bb
00000330: d446 86bd fa2c c8bc e4fa 01bd 04be 193d
00000340: 86e5 2ebd 12e1 da3b 009a bcbc bc44 0dbc
00000350: 682f e3bc 4056 77bc 5bb5 633a e6bb ad3c
00000360: ee67 b9bc b79f 9a3c a0e8 42bc f0c0 abbc
00000370: 4395 033c c0a6 a7bc 6b17 1abd 74b6 f03c
00000380: 8cf6 e2bb a097 71bc 48fb 2c3d fb4a 543c
00000390: 60dd d43c 4162 0e3d 281e 22bd 7dce 82bb
000003a0: e8c6 9cbc 9f71 953d 0bc2 04bd 07f9 09bd
000003b0: eaec 7bbc b500 533c 38e0 fe3c cad6 d83b
000003c0: 2d66 403d f0b4 2d3b bd89 21bd d423 b6bd
000003d0: ed31 cd3b 645b 9a3c 7d30 be3b 224d 89b9
000003e0: b5aa 02bd 28f6 3eba a43c cbbc 2e40 b93c
000003f0: 0dcc 95bc e0d6 21bc 5ea3 02bc c789 533d

arith.constant16 f4 [128]
0.020459764 0.009187334 -0.0078960415 -0.0068340735 -0.048211507 -0.045632143 -0.017902894 -0.03504743
-0.008939665 -0.0366354 0.0063990685 -0.02259385 -0.03241854 -0.028977709 -0.038180485 0.0019565655
-0.004260616 0.0081488695 -0.014051338 0.044333614 -0.023667164 -0.031768534 -0.043287624 -0.025794575
-0.07798237 0.01862904 -0.009577048 -0.00056605507 -0.039005198 -0.06383697 -0.068616025 -0.012847763
0.023601243 -0.05633756 -0.011707238 -0.08201658 -0.033739697 -0.03954392 -0.06374482 -0.010519575
-0.04312592 -0.026174951 -0.019714212 -0.0048078834 -0.022445375 -0.008790796 0.01760997 -0.00512575
-0.006471007 0.002019351 -0.04432358 -8.3227926e-05 -0.041060902 -0.01205109 -0.029489972 0.03909564
-0.039649356 0.001778279 -0.052892834 -0.031831723 0.020590652 0.0033170963 0.0015480845 0.013558042
0.0043998603 -0.018604238 0.010214702 0.01638562 -0.044772398 -0.004367746 -0.00061834464 -0.03929043
-0.05522867 -0.012591247 -0.005622323 0.027799657 0.0053603207 0.017813755 0.010832157 0.013304617
-0.0070663956 -0.037575327 -0.07867899 -0.058545638 -0.008802398 -0.00068907003 -0.013780667 -0.021099664
-0.013258728 -0.0093166055 -0.020791857 0.008048544 -0.037805904 0.00540606 -0.011104176 -0.023381451
-0.11288223 0.004340237 -0.029586421 -0.014498383 -0.018429728 -0.0047966605 -0.07961418 -0.0022347553
0.032424983 0.020536724 0.029923042 -0.013278107 -0.011519382 -0.0016671489 0.005420234 -0.009839463
0.009875212 0.0076962514 0.020174537 -0.0032816045 0.020110844 -0.05827464 -0.018021474 -0.029501643
0.02197521 -0.030423049 -0.013238677 -0.02173222 0.007907243 -0.0030969693 0.000603767 0.0065411576
00000000: 3c9b a73c 7986 163c 665e 01bc 5df0 dfbb
00000010: 6e79 45bd c5e8 3abd 17a9 92bc e58d 0fbd
00000020: ac77 12bc 000f 16bd 47af d13b bd16 b9bc
00000030: 4ec9 04bd a962 edbc 2463 1cbd b939 003b
00000040: a39c 8bbb d682 053c 9537 66bc 2a97 353d
00000050: a4e1 c1bc b91f 02bd 5d4e 31bd 254f d3bc
00000060: 39b5 9fbd ee9b 983c 0de9 1cbc 5063 14ba
00000070: eac3 1fbd f5bc 82bd 8f86 8cbd 6c7f 52bc
00000080: 6557 c13c 37c2 66bd b7cf 3fbc 4ff8 a7bd
00000090: a332 0abd cef8 21bd a58c 82bd 4c5a 2cbc
000000a0: cea4 30bd da6c d6bc b37f a1bc 738b 9dbb
000000b0: 5ddf b7bc 4507 10bc c942 903c e8f5 a7bb
000000c0: be0a d4bb 1757 043b a48c 35bd a78a aeb8
000000d0: 7a2f 28bd ef71 45bc f494 f1bc c022 203d
000000e0: 5d67 22bd 2415 e93a 28a6 58bd fb61 02bd
000000f0: baad a83c a463 593b 19e9 ca3a 8d22 5e3c
00000100: b42c 903b ea67 98bc 915b 273c 233b 863c
00000110: 4363 37bd 4f1f 8fbb 6818 22ba 00ef 20bd
00000120: 7537 62bd 854b 4ebc 773b b8bb 1bbc e33c
00000130: a1a5 af3b 27ee 913c 5c79 313c 9cfb 593c
00000140: 398d e7bb 96e8 19bd 7322 a1bd 8dcd 6fbd
00000150: ef37 10bc b5a2 34ba 4fc8 61bc 34d9 acbc
00000160: 233b 59bc ada4 18bc af53 aabc 0ade 033c
00000170: 5dda 1abd 5125 b13b 4aee 35bc 758a bfbc
00000180: cc2e e7bd 8c38 8e3b 395f f2bc a08a 6dbc
00000190: f1f9 96bc 4e2d 9dbb c20c a3bd f974 12bb
000001a0: 0fd0 043d a23c a83c 2b21 f53c 6b8c 59bc
000001b0: cabb 3cbc 3c84 daba 389c b13b b335 21bc
000001c0: a4cb 213c d630 fc3b 1245 a53c 3010 57bb
000001d0: 7fbf a43c 64b1 6ebd c5a1 93bc 6ead f1bc
000001e0: 5b05 b43c c239 f9bc 09e7 58bc c507 b2bc
000001f0: 628d 013c 86f6 4abb 1e46 1e3a 3557 d63b

arith.constant17 f4 [128]
-0.11253675 0.03695349 -0.015942814 0.007223547 -0.018848496 -0.039490744 0.009447825 -0.017807912
-0.004639927 0.015086492 -0.0072313547 -0.021089852 -0.0019683575 -0.018106474 -0.035589196 -0.04311858
-0.005350843 -0.008687217 -0.07899902 -0.025629109 -0.039171983 -0.025341662 -0.01540262 -0.0058943485
-0.008160041 0.03448297 -0.012985978 -0.029472431 -0.024859475 -0.046240672 -0.0021360605 -0.03362714
-0.05438102 -0.010283316 -0.008516146 -0.0020912236 -0.112257674 -0.014359035 -0.030098697 -0.011509016
-0.015544213 -0.0992405 -0.0014693514 -0.033250473 -0.0097194025 -0.028908836 0.0028539374 -0.016460313
-0.017035626 -0.022125792 -0.040968813 -0.060732167 0.023368653 0.0049861283 -0.023872357 0.020196063
-0.020565446 -0.050155275 0.012406597 -0.009586083 0.0033504232 0.0031151653 -0.06620804 -0.048917122
0.008525358 -0.08143052 -0.023963194 -0.0068913647 -0.009432972 -0.028341154 -0.0888659 0.0064548193
-0.07962288 -0.011329707 -0.08311516 -0.013027546 -0.072047256 -0.106015794 -0.047099337 -0.009063317
-0.086324945 -0.031730838 -0.00153723 -0.02881053 -0.0055299127 -0.011730602 -0.086671926 0.030700486
-0.07028816 -0.03763607 -0.09447472 -0.059945416 -0.016942034 0.006991217 -0.026932942 0.012815012
-0.0032585168 -0.036495112 -0.050061684 0.014031689 -0.024541471 -0.017982222 -0.035210907 -0.045317616
-0.07862383 0.004805539 -0.018715156 -0.0075341035 -0.022062628 -0.0113649955 -0.03989284 0.005197961
-0.01693122 -0.06432784 0.01737349 -0.0108309155 -0.04400113 -0.051972367 -0.013505078 -0.017448626
-0.03645238 -0.04370605 -0.00412606 0.0069295024 -0.032596167 -0.020034868 -0.021458888 -0.036365945
00000000: ab79 e6bd 8b5c 173d 819a 82bc 81b3 ec3b
00000010: 2968 9abc 0cc1 21bd 0dcb 1a3c e6e1 91bc
00000020: 870a 98bb 552d 773c 00f5 ecbb a0c4 acbc
00000030: 8fff 00bb 0754 94bc fac5 11bd 1c9d 30bd
00000040: 2056 afbb d454 0ebc 3dca a1bd 23f4 d1bc
00000050: cd72 20bd 5199 cfbc 455b 7cbc 6125 c1bb
00000060: b1b1 05bc 043e 0d3d 24c3 54bc 2b70 f1bc
00000070: 19a6 cbbc dc66 3dbd 26fd 0bbb 9dbc 09bd
00000080: a2be 5ebd 5a7b 28bc 4e87 0bbc e90c 09bb
00000090: 5ae7 e5bd 2842 6bbc 8b91 f6bc 5090 3cbc
000000a0: 28ad 7ebc 9a3e cbbd 4097 c0ba a631 08bd
000000b0: 213e 1fbc 39d2 ecbc 2009 3b3b c7d7 86bc
000000c0: 4c8e 8bbc 2641 b5bc eace 27bd 4bc2 78bd
000000d0: 9e6f bf3c ad62 a33b f68f c3bc 3772 a53c
000000e0: de78 a8bc 9e6f 4dbd 0a45 4b3c f20e 1dbc
000000f0: c692 5b3b cd27 4c3b 1598 87bd 525d 48bd
00000100: f1ad 0b3c 0bc5 a6bd 764e c4bc f5d0 e1bb
00000110: c18c 1abc b52b e8bc 53ff b5bd f382 d33b
00000120: 5211 a3bd 3ca0 39bc 4838 aabd 7d71 55bc
00000130: 838d 93bd cf1e d9bd 3ceb 40bd 4f7e 14bc
00000140: 22cb b0bd 32f8 01bd e17c c9ba 1004 ecbc
00000150: 4534 b5bb b631 40bc 0d81 b1bd 967f fb3c
00000160: 3df3 8fbd 4828 1abd f67b c1bd 5389 75bd
00000170: 05ca 8abc 9416 e53b 79a2 dcbc 0ef6 513c
00000180: d78c 55bb e67b 15bd 7b0d 4dbd 2be5 653c
00000190: 320b c9bc 744f 93bc 5039 10bd f79e 39bd
000001a0: 8805 a1bd c877 9d3b 8750 99bc a4e0 f6bb
000001b0: afbc b4bc 3f34 3abc ad66 23bd a853 aa3b
000001c0: 58b3 8abc 51be 83bd d952 8e3c 2774 31bc
000001d0: 873a 34bd fae0 54bd 6744 5dbc 6cf0 8ebc
000001e0: 174f 15bd 1d05 33bd e633 87bb e110 e33b
000001f0: 8f83 05bd 2a20 a4bc 8dca afbc 75f4 14bd

arith.constant18 f4 [64]
-0.056364983 -0.04207171 -0.026369711 -0.016380485 0.036638044 0.0013127722 0.028582849 -0.034140874
-0.02025054 -0.028492685 -0.023379523 0.05274254 -0.015542082 -0.044477575 0.009858502 -0.025971044
0.021523433 -0.01146541 0.00034917225 -0.031893495 -0.010000954 0.009536027 0.018216336 0.0037788916
0.023919223 -0.02797138 -0.0075626336 0.02017366 -0.017938167 -0.03797168 -0.024467003 -0.031504355
-0.033596903 -0.036653634 -0.029947858 -0.08279135 -0.0067215543 -0.021520661 -0.017193027 0.037441764
-0.04881214 -0.006663929 -0.024135567 -0.025419695 -0.030251002 -0.037735824 -0.017150586 -0.020365983
-0.003989806 -0.017450947 -0.011735285 -0.015643395 -0.002173421 -0.018488606 -0.07576905 -0.015821088
-0.07805463 -0.010142626 -0.043670792 -0.017371574 -0.026162563 -0.004874278 -0.027008364 -0.03131106
00000000: f8de 66bd 6353 2cbd 4b05 d8bc 5e30 86bc
00000010: c611 163d 5311 ac3a 9426 ea3c 4dd7 0bbd
00000020: 76e4 a5bc 7e69 e9bc 6a86 bfbc 9008 583d
00000030: 37a4 7ebc 1e2e 36bd 8e85 213c 3ac1 d4bc
00000040: e951 b03c 6ad9 3bbc 1b11 b739 c1a2 02bd
00000050: 0bdb 23bc ff3c 1c3c 6d3a 953c 48a7 773b
00000060: 3ff2 c33c 3c24 e5bc f8cf f7bb 3b43 a53c
00000070: 10f3 92bc 3188 1bbd 066f c8bc b60a 01bd
00000080: e89c 09bd 1f22 16bd 3655 f5bc 838e a9bd
00000090: 7c40 dcbb 194c b0bc 64d8 8cbc 895c 193d
000000a0: 3def 47bd 175d dabb f4b7 c5bc f73c d0bc
000000b0: f3d0 f7bc e190 1abd 637f 8cbc 90d6 a6bc
000000c0: ebbc 82bb 4af5 8ebc 5a45 40bc 9426 80bc
000000d0: f46f 0ebb 6b75 97bc ce2c 9bbd 3a9b 81bc
000000e0: 1bdb 9fbd 422d 26bc 25e0 32bd d54e 8ebc
000000f0: df52 d6bc 68b8 9fbb a540 ddbc 0740 00bd

arith.constant19 f4 [64]
-0.03806525 -0.006745265 -0.012273526 -0.024194919 -0.044447497 -0.033021677 0.029500892 -0.10120499
-0.036072653 -0.03029172 -0.012354692 -0.038347464 -0.0062753865 -0.038751803 -0.009736756 -0.0076352446
-0.070072465 -0.030372439 -0.03289462 -0.022013372 -0.021010995 0.008282801 -0.05594514 -0.05866104
0.0031132414 -0.031002246 -0.027689412 -0.032377597 0.008891811 -0.059673663 -0.031439826 -0.046016484
-0.045577396 0.019437648 0.0011584697 -0.069817424 -0.005884481 -0.114756525 -0.018894043 0.0014085309
-0.0805929 0.02128969 -0.04364282 -0.030359834 -0.024684176 0.037340347 0.008982628 -0.017784446
0.009568055 -0.007868559 -0.03632382 -0.075745404 -0.0009647688 -0.084685385 -0.004048503 -0.027350467
-0.013759516 0.029843306 -0.013137799 0.015108369 -0.033828463 -0.04755359 0.003605932 -0.011185297
00000000: 4fea 1bbd 6207 ddbb e616 49bc 6c34 c6bc
00000010: 940e 36bd bd41 07bd dbab f13c 9044 cfbd
00000020: ebc0 13bd 5726 f8bc 566b 4abc 3b12 1dbd
00000030: c2a1 cdbb 36ba 1ebd ea86 1fbc 1331 fabb
00000040: 2782 8fbd 9fcf f8bc 82bc 06bd 6355 b4bc
00000050: 401f acbc 96b4 073c bb26 65bd 8f46 70bd
00000060: 8607 4c3b 6cf8 fdbc e8d4 e2bc 5f9e 04bd
00000070: f5ae 113c 5f6c 74bd 0cc7 00bd c87b 3cbd
00000080: 5daf 3abd b43b 9f3c cbd7 973a 70fc 8ebd
00000090: 9bd2 c0bb 7805 ebbd aec7 9abc 749e b83a
000000a0: e40d a5bd b767 ae3c d0c2 32bd 30b5 f8bc
000000b0: 7836 cabc 31f2 183d df2b 133c b0b0 91bc
000000c0: 55c3 1c3c 21eb 00bc 49c8 14bd 6820 9bbd
000000d0: 8ae8 7cba 886f adbd 4ea9 84bb 160e e0bc
000000e0: 986f 61bc f379 f43c ec3f 57bc 1889 773c
000000f0: b78f 0abd 8ec7 42bd 8051 6c3b 8942 37bc

arith.constant20 f4 [32]
-0.0033873406 -0.06703256 -0.05543647 -0.06717337 0.0093649635 0.010536746 0.04201173 0.01018296
-0.030335672 -0.014277948 0.044830374 -0.00615281 -0.037252046 -0.024113527 0.0303441 -0.029626492
-0.037161358 0.0059148204 -0.019108236 0.022347448 -0.024703285 0.025389934 -0.035666727 0.04651802
-0.0047828187 -0.046097897 -0.02209209 -0.013664977 0.011253628 0.035007413 0.019328391 -0.046962235
00000000: 25fe 5dbb 5e48 89bd 5a11 63bd 3192 89bd
00000010: 816f 193c 51a2 2c3c 7e14 2c3d 6ed6 263c
00000020: 8482 f8bc 0eee 69bc 0ea0 373d 839d c9bb
00000030: 9a95 18bd bb89 c5bc 3194 f83c 42b3 f2bc
00000040: 8236 18bd 1cd1 c13b e088 9cbc ff11 b73c
00000050: 8b5e cabc 8dfe cf3c 4617 12bd ae89 3e3d
00000060: 31b9 9cbb 26d1 3cbd 79fa b4bc 11e3 5fbc
00000070: 2361 383c ef63 0f3d 9356 9e3c 795b 40bd
